4000
__________________________________________________________________________________________________
Layer (type)                    Output Shape         Param #     Connected to                     
==================================================================================================
input_1 (InputLayer)            (None, 128, 128, 1)  0                                            
__________________________________________________________________________________________________
lambda_1 (Lambda)               (None, 128, 128, 1)  0           input_1[0][0]                    
__________________________________________________________________________________________________
conv2d_1 (Conv2D)               (None, 128, 128, 8)  80          lambda_1[0][0]                   
__________________________________________________________________________________________________
conv2d_2 (Conv2D)               (None, 128, 128, 8)  584         conv2d_1[0][0]                   
__________________________________________________________________________________________________
max_pooling2d_1 (MaxPooling2D)  (None, 64, 64, 8)    0           conv2d_2[0][0]                   
__________________________________________________________________________________________________
conv2d_3 (Conv2D)               (None, 64, 64, 16)   1168        max_pooling2d_1[0][0]            
__________________________________________________________________________________________________
conv2d_4 (Conv2D)               (None, 64, 64, 16)   2320        conv2d_3[0][0]                   
__________________________________________________________________________________________________
max_pooling2d_2 (MaxPooling2D)  (None, 32, 32, 16)   0           conv2d_4[0][0]                   
__________________________________________________________________________________________________
conv2d_5 (Conv2D)               (None, 32, 32, 32)   4640        max_pooling2d_2[0][0]            
__________________________________________________________________________________________________
conv2d_6 (Conv2D)               (None, 32, 32, 32)   9248        conv2d_5[0][0]                   
__________________________________________________________________________________________________
max_pooling2d_3 (MaxPooling2D)  (None, 16, 16, 32)   0           conv2d_6[0][0]                   
__________________________________________________________________________________________________
conv2d_7 (Conv2D)               (None, 16, 16, 64)   18496       max_pooling2d_3[0][0]            
__________________________________________________________________________________________________
conv2d_8 (Conv2D)               (None, 16, 16, 64)   36928       conv2d_7[0][0]                   
__________________________________________________________________________________________________
max_pooling2d_4 (MaxPooling2D)  (None, 8, 8, 64)     0           conv2d_8[0][0]                   
__________________________________________________________________________________________________
conv2d_9 (Conv2D)               (None, 8, 8, 128)    73856       max_pooling2d_4[0][0]            
__________________________________________________________________________________________________
conv2d_10 (Conv2D)              (None, 8, 8, 128)    147584      conv2d_9[0][0]                   
__________________________________________________________________________________________________
conv2d_transpose_1 (Conv2DTrans (None, 16, 16, 64)   32832       conv2d_10[0][0]                  
__________________________________________________________________________________________________
concatenate_1 (Concatenate)     (None, 16, 16, 128)  0           conv2d_transpose_1[0][0]         
                                                                 conv2d_8[0][0]                   
__________________________________________________________________________________________________
conv2d_11 (Conv2D)              (None, 16, 16, 64)   73792       concatenate_1[0][0]              
__________________________________________________________________________________________________
conv2d_12 (Conv2D)              (None, 16, 16, 64)   36928       conv2d_11[0][0]                  
__________________________________________________________________________________________________
conv2d_transpose_2 (Conv2DTrans (None, 32, 32, 32)   8224        conv2d_12[0][0]                  
__________________________________________________________________________________________________
concatenate_2 (Concatenate)     (None, 32, 32, 64)   0           conv2d_transpose_2[0][0]         
                                                                 conv2d_6[0][0]                   
__________________________________________________________________________________________________
conv2d_13 (Conv2D)              (None, 32, 32, 32)   18464       concatenate_2[0][0]              
__________________________________________________________________________________________________
conv2d_14 (Conv2D)              (None, 32, 32, 32)   9248        conv2d_13[0][0]                  
__________________________________________________________________________________________________
conv2d_transpose_3 (Conv2DTrans (None, 64, 64, 16)   2064        conv2d_14[0][0]                  
__________________________________________________________________________________________________
concatenate_3 (Concatenate)     (None, 64, 64, 32)   0           conv2d_transpose_3[0][0]         
                                                                 conv2d_4[0][0]                   
__________________________________________________________________________________________________
conv2d_15 (Conv2D)              (None, 64, 64, 16)   4624        concatenate_3[0][0]              
__________________________________________________________________________________________________
conv2d_16 (Conv2D)              (None, 64, 64, 16)   2320        conv2d_15[0][0]                  
__________________________________________________________________________________________________
conv2d_transpose_4 (Conv2DTrans (None, 128, 128, 8)  520         conv2d_16[0][0]                  
__________________________________________________________________________________________________
concatenate_4 (Concatenate)     (None, 128, 128, 16) 0           conv2d_transpose_4[0][0]         
                                                                 conv2d_2[0][0]                   
__________________________________________________________________________________________________
conv2d_17 (Conv2D)              (None, 128, 128, 8)  1160        concatenate_4[0][0]              
__________________________________________________________________________________________________
conv2d_18 (Conv2D)              (None, 128, 128, 8)  584         conv2d_17[0][0]                  
__________________________________________________________________________________________________
conv2d_19 (Conv2D)              (None, 128, 128, 1)  9           conv2d_18[0][0]                  
==================================================================================================
Total params: 485,673
Trainable params: 485,673
Non-trainable params: 0
__________________________________________________________________________________________________
Train on 3600 samples, validate on 400 samples
Epoch 1/30
   4/3600 [...............
…
